osnet_x0_25_market.onnx (onnx, 907124 bytes, 481 tensors)

conv1.bn.bias f4 [16]
00000000: 3b6c 333f 60dd 373f 2e95 8b3e 96a6 be3e
00000010: b788 9d3d 9716 733e 2a74 cd3d ee4a 733b
00000020: 4dee c63e f8f2 9d3d 50fa 0a3e 283a 303d
00000030: 881d 013e cb04 f33d e7ae a63d 8f25 0d3e
0.7008702 0.71822166 0.27262253 0.3723647 0.07692092 0.23739086 0.10031922 0.003712352
0.38853684 0.07712358 0.13572049 0.043024212 0.12608922 0.118661486 0.08138829 0.13783859

conv1.bn.running_mean f4 [16]
00000000: 0e48 f2be c919 0f3f bc61 b4be d6fd 283f
00000010: 832d 03bd e5fb 76bf cb4a 023d ee0e b73c
00000020: b5f6 873f cac1 87bc 1d93 b03d 1173 973d
00000030: 0d32 343c 9900 50bd 1866 1dbc 1e0c ff3c
-0.47320598 0.5589872 -0.35230815 0.6601232 -0.032025825 -0.9647811 0.03180961 0.022345986
1.0622164 -0.016571898 0.0862181 0.07394994 0.010998261 -0.05078182 -0.009606861 0.031133708

conv1.bn.running_var f4 [16]
00000000: 2228 f83f c912 4240 9d61 9b3f b878 973f
00000010: 91ae cf3e b8d0 6840 701d c23f afea b63e
00000020: 24e9 6e40 0c7c e93f 8918 6c3e 879d 923e
00000030: 5e46 d03f 9ac5 de3f f34e b73f 8aca 413e
1.9387248 3.0323966 1.2139164 1.1833715 0.4056287 3.6377392 1.5165234 0.35725924
3.7329798 1.8240981 0.23056234 0.2863581 1.6271474 1.7404053 1.4320968 0.18924919

conv1.bn.weight f4 [16]
00000000: 7fc9 d93e 4bb3 073f 1597 9d3e 6d21 a73e
00000010: 2324 523e 31f0 b43e f538 c53e 6515 753e
00000020: 280c b93e 0138 ad3e ff13 8d3e ae40 403e
00000030: 8222 bf3e 98d4 af3e d93f a03e d6e6 843e
0.42536542 0.53007954 0.3077933 0.3264269 0.20521598 0.35339502 0.38520017 0.23933943
0.36142087 0.3383179 0.27554318 0.18774673 0.37331015 0.34341884 0.31298712 0.25957364

conv1.conv.weight f4 [16, 3, 7, 7]
00000000: f188 ed38 4620 06bc 8364 57bc 9eb1 f03b
00000010: 5f49 a23c 70b2 e2bc d0a3 9fbc f7f6 d9bb
00000020: 0184 01bc 8897 d6bb 3859 953c 39dd 083d
00000030: 2479 90bc 6598 52bc 371f 7abc 2524 14bc
00000040: bab7 15bb 3cc1 cf3c 19d6 2d3d d805 01bc
00000050: 1de4 eabb ece9 bc3c 47f0 b13c 9a04 fd3c
00000060: e31a 723d 49ad a13d ed55 f83c a781 0d3d
00000070: d6eb 043c 1215 0f3c 6b9a 903c 4af8 2f3d
00000080: 145e 7b3d 5b9d 923c c862 b93c 655f cfba
00000090: 45ba 03bc e1c0 debb b286 343c f6dd e93c
000000a0: 112d 29bc ea52 7ebb 9380 003c d088 98bb
000000b0: 88b2 20bc f9dc 5e3b 0f04 823c 9d97 a8bc
000000c0: 00a3 2ebc 9249 0939 76e8 41bb fa40 a139
000000d0: 4fd8 b03c 9060 143d c9c3 3bbb 3d09 103c
000000e0: 1647 5a3b e10e 073c 500a 9e3c 9854 123d
000000f0: c971 5c3d f5bf 933c 8421 c53c e5c1 923a
00000100: 9193 363c c983 d03c 1bdd 063d a865 5e3d
00000110: 2531 db3c 690f fe3c b206 d13c 6727 0a3d
00000120: e712 383d 75b1 383d e3d1 873d e9b8 3b3d
00000130: 17f0 713d 1080 473c b615 bf3c 8f00 1b3d
00000140: 911a 413d 010e 8a3d 2e11 1c3d f468 3c3d
00000150: 6023 163b a6ee ef3b bcff 7b3c a739 ea3c
00000160: 67dd 433d 6591 333c e39e 743c 83b8 033c
00000170: e767 b73b f27e 993b c084 863c abe1 f13c
00000180: dcd8 89bb 799e bd3a be96 85bb 8f4d 65bc
00000190: eea1 9fbc ff24 003b 4253 4f3c c025 ddbc
000001a0: 351d 7abc be42 aebb 295d a4bb 640f eeba
000001b0: bc57 b33c 8780 0e3d 9fe0 20bc eef0 f6bb
000001c0: 972b 12bc 9da9 4ebb 22ef d43b 115e fc3c
000001d0: b056 433d 0b1f 1b3b 1527 0bbb 0b90 b33b
000001e0: e24b 1c3c dbd9 aa3c c10c 3d3d 69e7 7e3d
000001f0: 0727 973c e7fd a43c ed9a 13bc b080 08bb
00000200: 96f1 523c d5cc f23c 0706 303d 0a42 463b
00000210: dc42 013c 01af f8bc 54a6 dbbc ddc8 d3bc
00000220: 1168 84bc bd66 65bb e88d 23bd 2518 09bd
00000230: ce3c b2bc fed2 c8bc ff46 febc 2f0f cbbc
00000240: 0f48 7bbc 01ad 46bd 6e01 2ebd 361b cebb
00000250: 1c2f 42bb 6d4c 36bc 9846 47bc 3651 3cbc
00000260: fc45 0fbc b0d6 15bb c12b 303c 3610 0e3c
00000270: 92ec e0bb 028a 85bc 0466 a3bc 8ece 6ebc
00000280: cf40 c4bb b8fc 8dba 98e4 88bb 0955 c7bc
00000290: 1520 1bbd 7d73 2dbd 4aae 11bd a68b ebbc
000002a0: 0e28 11bc 9316 35bc ee01 03bd 7279 37bd
000002b0: 2c9e 46bd 6075 30bd f9c4 17bd 3b51 95bc
000002c0: 3acc 9fbc acf1 26bd a43e 58bd e572 60bd
000002d0: 878b 3dbd 8265 25bd 7520 073c 9980 823c
000002e0: 7d51 9bba 4899 55bc 891b 69bc 2d35 cabb
000002f0: df2f 083c c83f 9d3a 57f3 3a3c 48c0 e5bb
00000300: efa4 8ebc aaed 97bc b3e0 aebb d378 993c
00000310: 204e 2fbc 9215 4cbc e023 c0bc 933c d1bc
00000320: d417 bfbc 3d2a b2bc 952b 94bc bcc5 52bb
00000330: 6876 d1bb bc08 c2bc 1403 05bd 82a4 13bd
00000340: 3d64 07bd 7bd3 fdbc 3b83 37bc 717a 46bc
00000350: fdb9 fbbc a9a3 31bd e186 4ebd 7a39 45bd
00000360: 59a4 41bd 50ad 71bc b0d0 29bc b475 fbbc
00000370: a472 39bd a48e 51bd c246 4cbd b4f5 47bd
00000380: df01 adbc 2b09 85bc ca90 0dbd 76f1 3abd
00000390: 848b 56bd 12bc 4cbd aed5 41bd 6ce4 823c
000003a0: 4270 b33c 211c fa3a 697c 2cbc 8b22 80bc
000003b0: d8d6 49bc 14b2 713a bc3e 263c 46ac 983c
000003c0: 0093 17ba c6b8 52bc 5c7f 8ebc c937 0ebc
000003d0: e79f 7b3c 9eff 9c3c 2ef3 673c 28b9 013c
000003e0: 6339 303c 4871 643c 3eaf 953c 8320 d63c
000003f0: 4606 9c3c 8b64 373c 9c85 d9ba 7634 ccbb
0.00011326548 -0.0081864055 -0.013146522 0.0073453924 0.019810377 -0.027672976 -0.019487292 -0.006651755
-0.007905007 -0.0065488257 0.01823102 0.0334141 -0.01763589 -0.0128537165 -0.015266231 -0.009041821
-0.0022845105 0.025360696 0.042440508 -0.007874928 -0.0071683065 0.023060761 0.021721018 0.030885983
0.059107672 0.0789438 0.03031441 0.034547474 0.008112868 0.008733051 0.017651757 0.042961396
0.061369017 0.017897299 0.02263011 -0.0015821276 -0.008040016 -0.0067978953 0.011018442 0.028548222
-0.010325686 -0.0038806745 0.0078431545 -0.004654981 -0.00980819 0.0034006222 0.015871076 -0.020580107
-0.010658979 0.00013092745 -0.002958802 0.00030756724 0.021587519 0.0362249 -0.0028650633 0.008791265
0.003330653 0.0082432935 0.019292027 0.035725206 0.05381945 0.018035868 0.024063833 0.0011196701
0.011143581 0.025453465 0.032925706 0.054296166 0.026756832 0.031013208 0.025515888 0.033728983
0.0449399 0.04509111 0.066318296 0.04583064 0.05906686 0.012176529 0.023325782 0.03784233
0.047144476 0.06740952 0.03810232 0.04599853 0.0022909269 0.0073221503 0.015380796 0.028591944
0.047818568 0.010959958 0.01493046 0.0080395965 0.005597103 0.0046843225 0.016420722 0.029526552
-0.00420676 0.0014466784 -0.0040768078 -0.013995542 -0.019486394 0.0019553301 0.012654128 -0.02699554
-0.015265753 -0.005318015 -0.0050159884 -0.0018162546 0.021892421 0.034790542 -0.009819179 -0.0075360453
-0.008921525 -0.0031534203 0.0064982334 0.030806573 0.047690094 0.0023669626 -0.0021233012 0.0054798177
0.009539576 0.020855835 0.04615474 0.06223241 0.018451227 0.020140601 -0.009009105 -0.0020828657
0.012874981 0.029638687 0.042974498 0.0030251765 0.007889476 -0.030356886 -0.02681271 -0.025852615
-0.016162904 -0.0035003864 -0.039930254 -0.03347029 -0.02175751 -0.024514671 -0.031039713 -0.024787514
-0.015337004 -0.048504833 -0.042481832 -0.006289865 -0.002963013 -0.01112662 -0.012162827 -0.011493972
-0.008744713 -0.002286356 0.010752619 0.008670857 -0.006864139 -0.016301159 -0.019946106 -0.014575614
-0.005989171 -0.0010832762 -0.004177641 -0.02433254 -0.037872393 -0.042346466 -0.035566606 -0.028753113
-0.008859647 -0.011052745 -0.031984262 -0.044793554 -0.04849069 -0.043080688 -0.037053082 -0.01822721
-0.019506563 -0.04075782 -0.052794114 -0.054797072 -0.04627564 -0.04038001 0.008247484 0.01593046
-0.0011849847 -0.013037033 -0.014227756 -0.00617089 0.008312195 0.0011997158 0.011410556 -0.007011447
-0.01741263 -0.018545944 -0.005336845 0.018734371 -0.010699779 -0.012456315 -0.023454607 -0.02554158
-0.023326792 -0.021748656 -0.018087188 -0.0032161316 -0.006392289 -0.023685805 -0.03247364 -0.03604556
-0.03305458 -0.03098463 -0.011200721 -0.012114153 -0.030728335 -0.04336897 -0.0504216 -0.048150517
-0.047275875 -0.014750794 -0.010364696 -0.030695774 -0.045275345 -0.051161423 -0.049872167 -0.048818305
-0.021119056 -0.016239723 -0.03456191 -0.04564043 -0.052379146 -0.049984045 -0.04732292 0.01597806
0.021904115 0.0019081869 -0.010527709 -0.015641471 -0.012319289 0.0009219956 0.010146793 0.018636834
-0.00057820976 -0.012861436 -0.017394714 -0.008680292 0.015357948 0.019164857 0.0141571 0.00791768
0.01075587 0.013943024 0.018272039 0.02613855 0.01904596 0.011193405 -0.0016595605 -0.00623184

conv2.0.conv1.bn.bias f4 [16]
00000000: b722 aabd 6439 c23e 9e2c 0c3e 4316 743d
00000010: 6476 f6be 7d50 1a3e 15e6 ec3e a7d0 12be
00000020: 9ba4 e1be 1f65 12bd e75c 12be 96cf da3e
00000030: 6525 bd3e 3921 43be d51c f1bd b6b9 bfbd
-0.083074026 0.3793441 0.13688895 0.059591543 -0.481372 0.15069766 0.4626929 -0.14337407
-0.44070897 -0.035740968 -0.14293252 0.427365 0.36942592 -0.19055642 -0.117730774 -0.093615934

conv2.0.conv1.bn.running_mean f4 [16]
00000000: 1e42 d9bd ad64 f5bd 6116 6bbd e7a1 70bb
00000010: 7b14 8d3d ecce 053f 379b d5bd 8aaa 783d
00000020: 3549 df3c 2893 1bbf 0af0 8fbe 5dfa 6e3d
00000030: 1f9c 3fbd 0b36 823d 9b1c 8abe a5f5 2d3d
-0.10608314 -0.11982093 -0.05739439 -0.0036717595 0.06888672 0.5226886 -0.104299955 0.060709514
0.027256588 -0.6077142 -0.28112823 0.058344234 -0.046779748 0.06357964 -0.2697495 0.042470593

conv2.0.conv1.bn.running_var f4 [16]
00000000: ff9d 823b 22dd 5c3d 208d 9c3b d38f 8a3a
00000010: 18d9 f23c ec97 453c 3c5b e53d 5de2 2e3b
00000020: a09a d33c d7a2 043c 8fbd ed3b 44a5 723d
00000030: f6ad ea3c 8556 8b3b 20d1 023c cd9f 663a
0.0039861198 0.053921826 0.0047775656 0.0010571427 0.029644534 0.012060147 0.11199042 0.0026685216
0.025830567 0.008095465 0.007255263 0.05923964 0.028647404 0.0042522573 0.00798443 0.0008797616

conv2.0.conv1.bn.weight f4 [16]
00000000: e1e4 403e 4d1f 6f3e bbd8 073e 4433 913d
00000010: 61dd 053f 1678 0d3e 5495 933e 3c8f 183e
00000020: 955f ec3e 8938 323e e600 2b3e 71b7 883e
00000030: 0700 283e 8d6b 613e 4648 883e c984 a63d
0.1883731 0.23351784 0.1326627 0.07089856 0.5229092 0.1381534 0.28824866 0.1489839
0.46166673 0.17404379 0.16699561 0.26702455 0.1640626 0.22013684 0.2661764 0.081307955

conv2.0.conv1.conv.weight f4 [16, 16, 1, 1]
00000000: 78a4 4cbc 4c7a e9bc d358 ac3b e44b f83c
00000010: 7fc3 67bc 85e9 74bb a360 f7bc c0f1 26bd
00000020: 54bd b03b 1f16 1fbc 94b6 c2bc de0d 9bbc
00000030: c1a1 d2bd 520b 67bd 3ddb e2bb b05f cc3c
00000040: c430 c63d f516 9abe 625d 973e 8335 92be
00000050: f463 893a 5413 e33c 7797 c03c dcf1 6f3c
00000060: 4114 433e 53e2 12bc 8610 8fba b3c3 cbbc
00000070: 6981 75bb a8da a1ba d9b7 e2bb e52b cfbc
00000080: 4472 1abe 224e 0bbe 1341 58bb 0f1b 343e
00000090: 926e 2f3c de90 923d 8745 603d 54b3 b7bc
000000a0: c736 0a3e 1555 c43c c6c6 d03c 04ad 84bc
000000b0: ceef 8fba d09e 773c ef07 5abc c049 f7bc
000000c0: bfa7 be3c 3d7f b43c 977d 2ebd 40d0 3e3a
000000d0: 5711 4f3b 2cff 773b 57ef 053d 1353 b8bc
000000e0: 05fd d1bc 8127 24bd e8d6 e2ba 09b5 28bc
000000f0: dea4 453c a4fe 62bd e307 ad3c efd5 d4ba
00000100: 3d29 39be d49b 373e 92d7 1a3d 2417 783d
00000110: c7cd 10bb 0dda b9bd 983f 263d 64de d73b
00000120: 7129 0c3c 6ca3 ff3b 38e8 df3c 3eb2 cbbb
00000130: fad9 d33b 326e d83c 08bc cfba a557 e03c
00000140: 4050 7b3e f1a8 3e3e d028 ae3c d880 143d
00000150: 0b1e 073d 6c84 36ba 493d 263d 0400 843c
00000160: 7072 2f3d a488 6e3d 8996 043d c518 803d
00000170: 50d1 ff3c b37d 7f3d 6a8e 803c 6b92 1f3d
00000180: 64c7 243e 1b83 5fbe 89d0 0bbd 064b 313d
00000190: e3c5 96bc 260d 0a3f ccc4 a0bc 3541 abbc
000001a0: 4c63 d5be c50a 2f3b b012 d8bc 4c6d b4bb
000001b0: 9893 8e3c 3f8a d73b 9c03 12ba e3f6 19bd
000001c0: ed00 8f3d 3731 44bc f2fe 7b3c 601b 86bb
000001d0: 58e5 83bc 022c dc3d 6b0b 2cbd e214 733c
000001e0: 8881 a13b aa35 9d3b 9765 773c b28b bdbc
000001f0: cbb1 e1bc 157d 0a3c 99c6 3bbc f818 1d3b
00000200: f2e3 24be 4231 433e 1df8 853d d5f2 eabc
00000210: f762 983c 6688 c03d 0b78 98bc 00ab 02bd
00000220: f412 e9bd 8d73 733c 5790 943a 63f9 cabb
00000230: 8d8d 4d3b cb55 543c 6640 333b 738f 6a3c
00000240: 22d1 c0be 7fa7 93be 5107 b0bc b383 9bbd
00000250: ab03 3ebc 9cf8 0dbc 4c41 42bd 67b8 27bb
00000260: 7936 09bd 5dde 06ba 8638 0e3d b66a c73b
00000270: 789b 283c b1b4 a9ba 4a6a e03b 8d22 263d
00000280: d305 94be 6648 15be c40c 063d 4273 e53c
00000290: f0b5 92bc 196a 103d 2b49 ac3d 70f3 f2bb
000002a0: 86aa ae3c b215 2fbb cbf3 223d b11d 80bc
000002b0: fa09 013c 5f93 b7bc 7d91 b63c d29b 063c
000002c0: 0d45 7b3e c2d4 85be beec 39be fd7b 963e
000002d0: c314 0bbd 863b 35be 2f54 dabc c97b 0d3d
000002e0: c028 473e 5365 7dbc ce6e 6eba 3235 91bc
000002f0: 3461 243c b859 cbbc b169 bb3c 5670 4f3b
00000300: ec42 7dbe 38d5 ab3d af52 413c 7dcf cc3d
00000310: bdc2 f33a 263c dfbd 01d4 f6bc 3eca 8fbc
00000320: 572a 2b3e 1ce3 34bc 33a4 3dbc d4af 3b3c
00000330: 1451 093d e041 3a3a 1b9b 3a3a 597d 5dbc
00000340: a694 073e f24e 2ebc 5b29 5fbc bb78 cfbc
00000350: 9244 96bc bdda 44bd 2b0a e2bb e391 393d
00000360: 0c49 0e3c 4406 023c c3fd 403b ac56 bfbc
00000370: 45ed ffbc 72ea 203c 69ff 45bc a194 2c3c
00000380: 0666 05be 66bc efbd 0bc7 113c c050 f73c
00000390: ad10 c6bd 358b ae3a 3a5b d03b 93da 203b
000003a0: e21d a8bb 1a22 b0bd e3ed e2bb de71 e73b
000003b0: e57c d03c 0efb d43a 7e41 dfbd fc2d a1bc
000003c0: 70a6 943d e08d 6a3c 1608 97bc 34da 833b
000003d0: 8d1f c5ba 990a 6e3c 5119 28bd 8b4d 93bb
000003e0: e4d7 fa3c eb00 0abd 4a78 863b b791 f6bc
000003f0: 10d3 24bb 8c4f d5bc 5d70 eabc e801 c93c
-0.012490384 -0.028500699 0.005259612 0.030309625 -0.014145731 -0.0037370634 -0.030197447 -0.040757895
0.0053936634 -0.009709864 -0.0237687 -0.01892751 -0.10284758 -0.05640728 -0.006923108 0.024947971
0.0967727 -0.3009564 0.29563433 -0.2855645 0.0010482059 0.027719177 0.023509724 0.014645066
0.19050695 -0.008965093 -0.0010914959 -0.02487359 -0.0037461168 -0.001234849 -0.006918889 -0.025289485
-0.15082651 -0.13604024 -0.0032997772 0.17588447 0.010707514 0.071565375 0.054753806 -0.022424378
0.13497458 0.023966352 0.025485408 -0.016195782 -0.0010981502 0.015113547 -0.013307556 -0.030186534
0.023273347 0.022033328 -0.04260024 0.00072789565 0.0031596029 0.0037841303 0.032698955 -0.02250055
-0.025633344 -0.040076736 -0.0017306479 -0.010297068 0.012063233 -0.055418625 0.021121925 -0.0016238074
-0.18082137 0.17930537 0.03780324 0.060568944 -0.002209531 -0.09074793 0.04058799 0.0065877903
0.008554802 0.007801464 0.02733241 -0.0062163165 0.006465194 0.026419733 -0.0015848884 0.027385542
0.24542332 0.18619134 0.021259695 0.036255687 0.032987636 -0.00069624814 0.04058579 0.016113289
0.042833745 0.05823578 0.032370124 0.062547244 0.031227738 0.062375735 0.015692908 0.038957994
0.16091686 -0.21827357 -0.03413442 0.04328444 -0.018404907 0.5392631 -0.01962509 -0.020905117
-0.4167732 0.00267093 -0.026376098 -0.0055061933 0.017404363 0.0065777595 -0.0005569996 -0.037588965
0.069825985 -0.011974624 0.015380608 -0.004092619 -0.01610057 0.10750581 -0.042003077 0.014836522
0.0049287714 0.004797657 0.0150999045 -0.023137901 -0.027550599 0.008452673 -0.011460924 0.0023971181
-0.16102579 0.19061759 0.065414645 -0.028680244 0.018601878 0.09401016 -0.018611928 -0.03190136
-0.11380568 0.014859092 0.001133452 -0.00619428 0.0031364888 0.012959908 0.0027351617 0.0143164275
-0.37659556 -0.28838727 -0.021487864 -0.07593479 -0.011597554 -0.00866523 -0.047425553 -0.002559209
-0.033499215 -0.0005144829 0.034721874 0.006085719 0.010290973 -0.0012947527 0.006848608 0.040560294
-0.28910694 -0.14578399 0.032727018 0.02800906 -0.01790902 0.035257433 0.08412393 -0.007414274
0.021321546 -0.0026715812 0.03978328 -0.015639158 0.007875914 -0.02240914 0.022286171 0.008215861
0.2453806 -0.26138884 -0.18156716 0.2939147 -0.033955347 -0.17698488 -0.02665147 0.03454188
0.19449139 -0.015466052 -0.00090954907 -0.01772556 0.010032941 -0.024823055 0.022877546 0.003165265
-0.2473256 0.083902776 0.011799498 0.10000513 0.0018597465 -0.10900144 -0.030130388 -0.017552491
0.1671537 -0.011040475 -0.011574793 0.011455495 0.033524588 0.0007105153 0.00071184494 -0.013518655
0.13240299 -0.010638939 -0.0136207 -0.025326123 -0.018343244 -0.048060168 -0.006898185 0.045305144
0.008684408 0.007936064 0.0029448129 -0.023356758 -0.031241069 0.009821521 -0.01208482 0.010533483
-0.130272 -0.11705856 0.008897553 0.030189872 -0.096711494 0.0013316633 0.0063585313 0.0024544343
-0.0051305154 -0.08600254 -0.006925331 0.0070631346 0.02545018 0.0016249137 -0.109011635 -0.019675247
0.07258308 0.014316052 -0.018436473 0.0040238146 -0.001503931 0.014528894 -0.04103977 -0.004495328
0.030620523 -0.03369228 0.004103695 -0.03009878 -0.0025150217 -0.026038907 -0.028618032 0.024537042

conv2.0.conv2a.bn.bias f4 [16]
00000000: dd5e f13c fe68 a7bd 5565 40b9 d58e 503e
00000010: 6864 4a3d 742a b0bb 3c83 93bc d76c 09b1
00000020: 50dd fabb 9c55 d6bc fc4a f23c 47ff 419e
00000030: 8cc6 57b3 390b 953c bc8f 15bc c46d 3bbc
0.02946418 -0.081743225 -0.00018348296 0.20366986 0.04941216 -0.0053761546 -0.018006913 -1.9997992e-09
-0.007655777 -0.026163869 0.029576771 -1.0270125e-20 -5.0239166e-08 0.018193828 -0.009128507 -0.011439744

conv2.0.conv2a.bn.running_mean f4 [16]
00000000: a75a 91bb 5f2c 933a fcd5 1a00 0ff3 0d3b
00000010: 8b01 dfba 12ef 0ebb 1735 6037 0400 0080
00000020: 51a7 57b8 d6c2 8bbc 68a7 3c3a 0400 0000
00000030: d4ed 82ad f28e 82b9 6720 32b7 5b31 34b9
-0.0044358554 0.0011228434 2.464486e-39 0.0021659767 -0.001701401 -0.0021809977 1.3363801e-05 -6e-45
-5.141582e-05 -0.017060678 0.00071965763 6e-45 -1.4884906e-11 -0.00024902035 -1.0617171e-05 -0.00017184524

conv2.0.conv2a.bn.running_var f4 [16]
00000000: a657 c237 357e 4437 0400 0000 3ad4 163b
00000010: 7e43 e037 a365 2237 aa77 2032 0400 0000
00000020: d86b b535 dcc1 2f37 65a7 3a36 0400 0000
00000030: 31cd 571a f185 a538 43e6 8b30 f7a9 1637
2.3167417e-05 1.1711895e-05 6e-45 0.002301468 2.673431e-05 9.679617e-06 9.340434e-09 6e-45
1.3516938e-06 1.0475949e-05 2.7813596e-06 6e-45 4.462671e-23 7.892762e-05 1.0179025e-09 8.98027e-06

conv2.0.conv2a.bn.weight f4 [16]
00000000: 9462 6f3d 6a17 1d3e 42ee 98b2 6781 843e
00000010: 2432 4e3d b6bf a03d 207c da3c 810d 0080
00000020: 0a72 8f3d 4064 433e 540f 533d c410 0000
00000030: 8d17 2439 81ca 333e af82 913c edfb c93d
0.05844362 0.15340963 -1.7803476e-08 0.25879976 0.050340787 0.07849066 0.026670516 -4.844e-42
0.07004173 0.19081211 0.05152829 6.014e-42 0.00015649032 0.17557718 0.01776251 0.09862504

conv2.0.conv2a.conv1.weight f4 [16, 16, 1, 1]
00000000: 382b 64bb 2b4f f8bc adf8 a4bd cae7 77b9
00000010: b7ab a03c 3f87 d33b 00d7 afbd 0e63 c0bb
00000020: 609b 8bbc 55ca 54bd 499e c63c 6827 4a3c
00000030: 5b8a 51bd 44e0 cdbc 4ded be3c caff 4d3b
00000040: 6bbf 343d 6087 0bbb d611 923c 3df8 2dbd
00000050: 05a9 dbbc 1096 31bd 7978 a33b 7fa3 c5bd
00000060: faf1 933c b7e3 a43d edf6 2d3d f05a 263d
00000070: 4aef acbd 5c88 5ebd 00ad 073d 095d acbb
00000080: 3214 0000 3a07 4933 2f98 0680 2d23 0000
00000090: 7a11 0080 d9bf 2500 3e56 22a1 9a15 0080
000000a0: 4021 0080 6002 0080 321a 0000 067e 5c17
000000b0: 74fe 2a9a b606 0080 f813 0000 1b21 0000
000000c0: 05ca 13bc a158 59bd 7d3a a93c 4b5f 94bb
000000d0: 9e06 ee3d 30cc 143d 73ef 25bc 6415 3fbc
000000e0: 94ff 9f3d 8acc 5c3d a634 9c3d 691a e1bd
000000f0: 4fd2 613e 0f5f 67bc 859f 4b3b 1f85 a5bd
00000100: 75c2 d33c 2743 84be 87dd c1bd cf2a ad3c
00000110: 2745 0c3e 731c 4abd 4cb5 9d3d ed42 cfbc
00000120: 899a c0bc 91b9 e23c 7ef2 693b 28bc 383e
00000130: d525 43bd a32d 10bd cca7 373c e4c0 3db8
00000140: 2cdb 053c 1f81 c63c 9bd9 4abd d6ba f53b
00000150: fa66 a6bb 099a 8abc 3926 563d 5104 85bc
00000160: c1f8 263c 7fc3 763b b51f dfbc b00b 5abd
00000170: 1a21 39bd 391b 79bc abbf a3bb b590 223b
00000180: 0be5 2b3a 8b0f ab3a b085 ceb9 d795 95b9
00000190: 1577 e5ba 3ca6 a13c 557b 1dbb 90c0 0eb8
000001a0: 7535 e539 c677 d439 3c63 50b8 a505 1c3c
000001b0: 2542 15bc 089f b33a 621a 9339 6c17 3d3a
000001c0: f90f 0080 971f 0000 ce0c 0080 c902 0000
000001d0: 6717 0080 bf09 0080 e615 0080 9b19 0000
000001e0: 781d 0080 090d 0000 0f06 0080 421f 0000
000001f0: 1703 0000 8106 0080 3305 0080 3801 0000
00000200: 14d8 f33b ac5a 2e3d e65a 52bc cf64 5abc
00000210: 7d40 16bc 6cd4 81bd e446 1cbb 2be7 ebbb
00000220: d013 a7bb 5653 073d 4f37 8f3b d4bc 52bc
00000230: aaf7 b7bb 12be a7bc 570b e6bb 84b0 8ebb
00000240: 726c 3a3c 2316 2f3d 5970 13bc b3f6 3e3c
00000250: 4581 41bc 3d12 293d 7f9c 273d 6760 98bc
00000260: 1f92 633c 3462 fa3c bb0d bb3b 8c1e 043a
00000270: 75df af3d 8eeb 903b 7c10 dc3b 894c bc3a
00000280: 5266 cebb 4064 1b3c e416 5fbc 8fd1 d03c
00000290: 7182 8cbc 3568 7fbd f78d 98b7 2dad 843c
000002a0: 6052 5bbc 3196 5e3c 586f 79bc a6d8 4c3d
000002b0: cd21 72bc d756 9f3c 4dc6 663b d6f1 4fbc
000002c0: d61e 0080 a21a 0080 a311 0000 b910 0000
000002d0: 700f 0000 fd04 0000 0d06 0000 ea0a 0000
000002e0: 7d1f 0080 9308 0000 ad1b 0080 a616 0000
000002f0: ea1a 0000 491a 0080 3901 0000 a01f 0000
00000300: cce0 222e 1bca 7d37 2a8f 9037 0e47 442d
00000310: 13c9 652e 03e2 0936 9894 0138 af8c f0ad
00000320: 9a5a 7a2f 7668 0a2f bde7 c52c d683 f737
00000330: 0ff2 3337 3bd6 80b0 8243 1225 8ac6 f225
00000340: 5f59 d93c efff 583e 3791 05be be1c ebbb
00000350: 4a98 f03d 8b7f c9bb 67ed 47be 426f cebc
00000360: 7633 9fbd f260 b23d 07aa 983c 925d fa3a
00000370: 112f 303d 9dfb d33d 7436 e93c e13b d93b
00000380: 91cc a0ba 404b f93b 9934 0f3b ad8e 23ba
00000390: 1b87 1036 d935 a43b ecb8 25bc 7bbc b137
000003a0: fc1e 7ab5 3439 0337 7355 4636 18ea ff3a
000003b0: 03ae 37bb 3da1 51b7 6275 b5b8 7868 00ba
000003c0: 0d0b 483c 2a94 8f3d a945 3abc d8d1 a7bc
000003d0: d68b 32bc bd44 1dbd 3db3 0bbd 5387 8abb
000003e0: 6b14 f5bb 9e7d e43c e9e2 25bc 9221 76bd
000003f0: 65b9 2b3d 5610 22bd 5925 7dbb 3da3 053c
-0.00348158 -0.030311188 -0.08055244 -0.00023642104 0.01961313 0.0064553316 -0.0858593 -0.0058711832
-0.017041862 -0.05195077 0.024245398 0.012338497 -0.051157337 -0.025131352 0.023306513 0.003143298
0.044127863 -0.0021290407 0.01783077 -0.042473067 -0.026813993 -0.043356 0.0049887267 -0.09650325
0.01805972 0.08051246 0.042471815 0.04061407 -0.08444078 -0.05432926 0.03312397 -0.005260114
7.245e-42 4.6805532e-08 -6.05606e-40 1.2619e-41 -6.27e-42 3.466735e-39 -5.5001876e-19 -7.749e-42
-1.1928e-41 -8.52e-43 9.397e-42 7.12449e-25 -3.5360722e-23 -2.407e-42 7.163e-42 1.1876e-41
-0.009020333 -0.05306304 0.020657772 -0.0045279614 0.11622356 0.03632754 -0.01012789 -0.011662815
0.078124195 0.053906 0.076272294 -0.109913655 0.22052883 -0.014121785 0.0031070423 -0.080820315
0.02584956 -0.25832483 -0.09466081 0.021138577 0.13698255 -0.049343538 0.07700595 -0.025300467
-0.023511188 0.027676376 0.0035697515 0.18040526 -0.0476435 -0.035199773 0.0112094395 -4.5240755e-05
0.00816993 0.024231492 -0.04952393 0.007499079 -0.0050781937 -0.016919153 0.052282546 -0.01623741
0.0101911435 0.0037653146 -0.027236799 -0.053233802 -0.045197584 -0.015204244 -0.004997214 0.002480549
0.00065572624 0.0013050897 -0.00039390987 -0.00028531134 -0.0017506803 0.019732587 -0.002402981 -3.4034776e-05
0.00043718112 0.0004052503 -4.9683484e-05 0.00952283 -0.009110008 0.0013704011 0.00028057682 0.0007213268
-5.73e-42 1.1332e-41 -4.593e-42 9.99e-43 -8.395e-42 -3.496e-42 -7.856e-42 9.186e-42
-1.0571e-41 4.676e-42 -2.173e-42 1.1213e-41 1.108e-42 -2.333e-42 -1.865e-42 4.37e-43
0.00744153 0.04256694 -0.012839055 -0.013329699 -0.009170649 -0.063393444 -0.0023845965 -0.007199188
-0.0050987974 0.03303846 0.004370607 -0.012862403 -0.0056142407 -0.020476375 -0.007020395 -0.0043545384
0.011378394 0.04274572 -0.008998954 0.011655497 -0.011810605 0.04127716 0.04092073 -0.018600656
0.013889818 0.030564405 0.005708424 0.0005039952 0.08587543 0.0044226116 0.0067158323 0.0014366071
-0.0062988186 0.009484351 -0.013616297 0.02549055 -0.017152043 -0.06235524 -1.818592e-05 0.016195858
-0.013386339 0.013585613 -0.0152243 0.0500113 -0.014778567 0.019450588 0.0035213411 -0.0126919355
-1.1062e-41 -9.554e-42 6.327e-42 5.999e-42 5.538e-42 1.79e-42 2.17e-42 3.915e-42
-1.1296e-41 3.076e-42 -9.928e-42 8.125e-42 9.655e-42 -9.43e-42 4.39e-43 1.1345e-41
3.7034195e-11 1.51270315e-05 1.7232804e-05 1.1157087e-11 5.224716e-11 2.0546147e-06 3.0894385e-05 -2.7347317e-11
2.2769556e-10 1.2588139e-10 5.624805e-12 2.9506085e-05 1.072559e-05 -9.374114e-10 1.2686354e-16 4.2114843e-16
0.026531873 0.21191381 -0.13043676 -0.007175057 0.11747797 -0.0061492375 -0.19524156 -0.025199536
-0.07773487 0.08709897 0.018635763 0.0019101372 0.043013636 0.10350726 0.028468348 0.0066294526
-0.0012267997 0.0076078475 0.002185142 -0.0006239217 2.1536314e-06 0.005011302 -0.01011489 2.1187812e-05
-9.3177346e-07 7.821527e-06 2.9554037e-06 0.0019524721 -0.0028027303 -1.2494912e-05 -8.652617e-05 -0.00048983796
0.012209666 0.07010682 -0.011369147 -0.020485803 -0.010897597 -0.038395632 -0.03410648 -0.0042275577
-0.0074792407 0.02789193 -0.0101249 -0.06009061 0.041924853 -0.03956636 -0.0038626997 0.008156595

conv2.0.conv2a.conv2.weight f4 [16, 1, 3, 3]
00000000: 3d1c 893d e7c7 b9bb 51a8 b13d 04f6 c23c
00000010: 4748 9ebe 0911 e23b 174b a73d 1458 933c
00000020: e8f6 d53d ce77 1c3d 717e bf3d 64fc 3b3d
00000030: d5f8 993c 6bd8 ff3c 4c64 393c cb17 94bd
00000040: aa3f 13be 4ed5 cbbd 3f0e 0080 67cf b802
00000050: 5a00 1900 8115 9988 f312 3b86 7867 a406
00000060: 7072 4e04 6adf 958a 554d 500c b01b 1c3e
00000070: 5251 663f 0388 4f3e 7819 a9bd 709a 8bbe
00000080: ac14 afbd f7a1 adbb ef76 36bf dff8 3fbd
00000090: c031 e2bb 4b06 1cbc 1542 57bc 3a9b cf3c
000000a0: 9931 003d 7fcb 543d 4393 61bc 0625 de3c
000000b0: 9232 3a3c ee21 a73c 245e a83c 7a71 543b
000000c0: 919c a33c 07bd 553c ce3a 203c 7563 8c3c
000000d0: d448 c53c 61ff 793c 34ce 513c 24fc 3cba
000000e0: 7d19 9fbb b38e 563c ed02 92ba f469 12bc
000000f0: 9561 093c 63b3 6dbb a708 23bc a412 0080
00000100: 7d1f 0080 d511 0000 2318 0000 1a1d 0000
00000110: e51c 0080 480a 0000 9421 0000 db11 0080
00000120: af1a 2e3d 508c 1a3c 9aca 10bd e41c 5b3d
00000130: f965 0c3c 7e32 55bd f99e d23c 911e 10bb
00000140: 9c55 14bd e35d 96bd 4de1 a4bc 1e25 94bd
00000150: 57ed e03c 90bf 1e3d 9164 af3c 0483 8cbd
00000160: 7be1 abbc d0e1 93bd e6da 233d ffd0 2b3d
00000170: 80fb 4d3d a4d5 513c 1f28 2abd f9a5 533c
00000180: 2d3a 553b 8090 09bd 3641 c0bb 8a0e 0080
00000190: 011d 0080 7024 0080 e211 0000 3613 0000
000001a0: 4715 0080 7117 0000 3a23 0080 9a01 0080
000001b0: 451f c8b3 4820 da32 f153 de32 6f5a cdb3
000001c0: ceb9 b931 d20c 3132 37bf 9fb4 f8a9 74af
000001d0: 36b9 de32 d003 8fbc 02e8 cc3c bb8e a43a
000001e0: efa1 463d 11ca 523d 7f91 4b3d 00ea f9bc
000001f0: 7f28 5b3c e737 d6bc 9d09 39bb d16c 863b
00000200: 267e 82ba 8bdd 8d3c e707 07bd c467 5d3c
00000210: 531e d53b ccec 04bb 85ad 0b3c d147 933d
00000220: f952 503c 2ea2 a0bd 8811 bf3d ef4b 313c
00000230: 20be b1bd 2afb 703d 834e e93b 911a 8abd
0.06694839 -0.005669582 0.08674682 0.02379895 -0.30914518 0.0068990034 0.08168619 0.017986335
0.10447484 0.038200192 0.09350289 0.045894995 0.01879541 0.031231126 0.011315417 -0.07231101
-0.14379755 -0.09952794 -5.11e-42 2.7155413e-37 2.296014e-39 -9.213408e-34 -3.5184713e-35 6.184198e-35
2.426773e-36 -1.4432217e-32 1.6047008e-31 0.15244937 0.89967835 0.20266728 -0.08256811 -0.27266264
-0.08548865 -0.0052988487 -0.7127523 -0.0468682 -0.0069029033 -0.009522985 -0.013138314 0.025342572
0.0312973 0.05195188 -0.01376802 0.027117264 0.011364596 0.020401921 0.020552702 0.003241627
0.019972118 0.013045556 0.009779645 0.017137269 0.024082579 0.015258641 0.01280551 -0.0007209203
-0.0048553334 0.013095546 -0.0011139788 -0.008936394 0.008385082 -0.0036270253 -0.009950793 -6.687e-42
-1.1296e-41 6.397e-42 8.659e-42 1.044e-41 -1.0365e-41 3.688e-42 1.2046e-41 -6.405e-42
0.042505916 0.009432867 -0.035349466 0.05349435 0.008569234 -0.052050106 0.02571057 -0.0021990875
-0.036214456 -0.07342126 -0.020126963 -0.07233642 0.027456922 0.038756907 0.021410258 -0.06860927
-0.02098154 -0.07220805 0.04000368 0.04194736 0.050288677 0.012807284 -0.04154217 0.012917989
0.0032535896 -0.03358507 -0.0058671487 -5.216e-42 -1.0405e-41 -1.3071e-41 6.415e-42 6.892e-42
-7.633e-42 8.409e-42 -1.2637e-41 -5.75e-43 -9.3189136e-08 2.539322e-08 2.5882374e-08 -9.562506e-08
5.405332e-09 1.0305671e-08 -2.9755185e-07 -2.2252056e-10 2.5928426e-08 -0.017457873 0.025012974 0.0012554744
0.048494276 0.051462237 0.049699303 -0.030507088 0.013376354 -0.026149703 -0.002823449 0.0041023274
-0.0009955808 0.017317554 -0.03296652 0.013513509 0.006503859 -0.0020282743 0.008525257 0.07191432
0.012715095 -0.07843433 0.09329516 0.010821327 -0.086788416 0.05883328 0.007119955 -0.067433484

conv2.0.conv2b.0.bn.bias f4 [16]
00000000: 36fa 9e3d eec5 433c 6e10 58bc 5cff 283d
00000010: 4ece dabc 9520 913d 8994 9bbb 1f73 823d
00000020: 790e 133d 9a37 043e 2496 b63d bbb2 053e
00000030: 999e a13d f663 c13d 9760 883d 1a58 bd3d
0.07762568 0.011949046 -0.013187511 0.041259155 -0.026709702 0.07086293 -0.0047479314 0.06369614
0.035902474 0.12911835 0.08915356 0.13056462 0.07891578 0.09442894 0.06659048 0.0924532

conv2.0.conv2b.0.bn.running_mean f4 [16]
00000000: 704f 8138 96a6 9739 91d2 2bbb fe34 bfb9
00000010: d473 4c37 14a8 ccb8 fe0d bb39 1cac 1cba
00000020: cceb 923a 724b 863a f104 2ab8 d9d8 2d3a
00000030: 00cb 3438 e6e9 2bbb cb33 9cbb a09e 14bc
6.165996e-05 0.0002892508 -0.0026218037 -0.0003646984 1.2186316e-05 -9.758785e-05 0.00035677844 -0.0005976574
0.0011209189 0.0010245873 -4.053576e-05 0.0006631739 4.3104403e-05 -0.0026231944 -0.0047669164 -0.009071022

conv2.0.conv2b.0.bn.running_var f4 [16]
00000000: 5e3f ff37 6a48 9d34 fea3 b836 1858 8337
00000010: 3609 4636 b9be 3837 25eb 4036 2d01 5435
00000020: 52f5 a637 2d3b 8738 0f1d 3d37 7654 d638
00000030: 108e b637 101d 0939 b1f6 8938 e0ad 5338
3.0427876e-05 2.9296217e-07 5.5027185e-06 1.5657439e-05 2.950966e-06 1.1011661e-05 2.8747102e-06 7.8977865e-07
1.9902978e-05 6.448324e-05 1.1272044e-05 0.00010220047 2.1762244e-05 0.00013076165 6.578619e-05 5.0468254e-05

conv2.0.conv2b.0.bn.weight f4 [16]
00000000: 6136 a93d 9018 713d 8ac6 a43d d027 743d
00000010: bc73 c13d 8ae1 a73d 6540 673d 81ae 603d
00000020: dc7e 9c3d 869e a13d 270b d83d 138a b13d
00000030: 0a46 b83d 9f3a 143e 7c80 f13d 6453 fb3d
0.08262325 0.058861315 0.08045681 0.05960828 0.09445903 0.08197315 0.056457896 0.05485392
0.07641384 0.07891564 0.10549002 0.08668914 0.08997734 0.14475487 0.117920846 0.12271765

conv2.0.conv2b.0.conv1.weight f4 [16, 16, 1, 1]
00000000: 324e debb 4446 cbbd 7980 3a3c c52f 723d
00000010: e583 5a3c 6636 84bd 952d 033e 1aeb b13c
00000020: 1594 62bd 3f32 0abc 039c 473c 9183 79bc
00000030: 2fc0 dfbc 3b59 94ba 23a0 c73c ae6e 503c
00000040: 3dca ad3b 88c6 f53a a3cb da3c b4e5 04bc
00000050: 1c6b 2abc 03c2 9ebc 1491 c73c 1436 683a
00000060: 0c87 f7bb eb65 e33b 92d5 3c3c 1508 cb3c
00000070: 2308 613c 5816 47bb 4889 c93b baeb 1c3b
00000080: 937b a33a 80fc 17bd 3d11 2fba 1dce 9f3a
00000090: 6a1b 833c 434d c83b f413 543c d4d8 d9bb
000000a0: 5758 3a3c afd2 893c 5e98 7538 a824 803d
000000b0: c673 01bc 2a12 683b 7c6e a03b f773 ac3b
000000c0: 4d67 bf3b c7ef 193d 7f3e 12bd bba4 e4ba
000000d0: 0dff 7b3c 3c98 6b3b 331a 193d 2e2d 803c
000000e0: 759d ec3c ee29 8cbb 2554 f4bb ff53 3c3c
000000f0: 3f0f b0bd b754 933c 8f50 643c 2cc1 093c
00000100: cb5e 4c3c e3ce 773d 823c 35bd 41a5 1d3b
00000110: c579 07bd c416 6a3c dfdd eb3c 0891 f33a
00000120: 6e18 823a 4922 f0bb 4dcd 8dbb b7f1 93bd
00000130: 5cd4 d7bb fa21 cf3c a2d1 85bb 118d 9c3a
00000140: 553a 04bd 540b 92bc 3c77 5eba 105b 253d
00000150: e8bd ccbc f74f 00bd 0c93 f63d 3f5c 803c
00000160: 82fa 35bd 1b34 503c e80e c2bb bc79 a6bd
00000170: dd61 5cbc 1071 e23c efc8 223d dfb2 d53c
00000180: 12a2 9ebc 1c7d 00bd 294e 173c 9d66 293a
00000190: 4e0b 953b 8a8a 5b3d aca3 f2bb 5add 803c
000001a0: d4a6 72bc 1df7 6ebc 01ff ee3a 6602 0cbc
000001b0: 228f ba3c 50ac 8d3a 8f39 34bc 81d0 31bc
000001c0: b9c7 f9bc 81d1 e8bb 6da1 eabc 6374 9dbb
000001d0: a323 593c 450f 313d 50e6 dabb a0f0 0a3c
000001e0: 6397 5bbc 1bd6 adbc 0b63 0fbd 70ba 733b
000001f0: 5c86 32bd a3c9 2b3c 3fd1 92bc 7a59 98bc
00000200: 7a46 aa3b 16b1 e5bb 5dc6 383c b84f 583c
00000210: 08a9 21bd 38bb 1bbd a777 983d 00b3 893c
00000220: 985c a8bc bc73 c23c 8af5 cb3c 25e6 99bd
00000230: 0dfb d93c 6e38 afbb 5aee 203d 50ea dc39
00000240: b955 993c 1fd1 583d 89f5 1ebc d3a5 ac3c
00000250: 95b6 22bd 7016 c9bd 9113 83bc 9569 cbbc
00000260: da92 09bd d1cf 363d 295a 683c 9515 bcbd
00000270: 58f2 9abb 01ea 69bd 559c eabb 0d23 acbc
00000280: c954 733c f902 173b f055 c0bb b702 2d3d
00000290: d465 7b3a d0af f73d 2ef6 8bbb e4ef 283b
000002a0: db3a 22bc b717 f7bd 7535 94bd c8f9 bb3b
000002b0: 7ac0 96bd 45df 323c c794 573c 9114 3bbc
000002c0: 4fc2 59b9 1ede 39be f751 8fbc b0b4 543d
000002d0: 434f 283d f068 b83c d554 bd3d be32 783c
000002e0: 2bca 4cbd e0ba 63bc 9a2f 7b3b 385f 923d
000002f0: f2ee ce3b 1bc4 b53c 4eb7 8dbc 8494 fa3b
00000300: e775 c9bc 8054 833d e108 e4bc 902d 86bc
00000310: 35fc dbbc 288d 4b3d 9d67 18be e3df abba
00000320: 3f6f 713d 45a3 3bbd 9896 80bc 340e 453d
00000330: 4058 193d 36bf ac3a 9baf 303d c15d 663c
00000340: ddac 033d 3efa b13e 8046 283d a4c9 113d
00000350: b7a0 8fbc 5d44 11bd 6421 3fbc 1a00 763c
00000360: d97d 06bd d9ff 23bd cd7f c53b b765 8dbe
00000370: 7b85 8b3c ea34 87bd fc70 093d 0c01 f83c
00000380: 693e 9bbc bfa2 38bd 943b c2bc 2164 88bc
00000390: 90b9 8f3a 35bd 183d 4c7d c6bb 2d93 773c
000003a0: dfeb acba f21c 51bc 361c cdbb bd3f c9bd
000003b0: 3e05 233c c2d3 9fbb c137 63bb ef11 8cbc
000003c0: 15ac 46bd 5da0 dabd 17dd 1b3e 34ef 47bb
000003d0: 8566 b2bc 5061 58bd 8289 3bbd 78cb f83c
000003e0: b35a a5bd 0124 803c a362 7f3c 87ce 323e
000003f0: 0ab5 fb3d 0496 f0bc b019 8ebc c2a5 e9bc
-0.006784224 -0.099255115 0.011383169 0.059127588 0.01333711 -0.06455688 0.12810357 0.02171855
-0.055317003 -0.008434831 0.012183192 -0.015229122 -0.02731332 -0.0011318097 0.024368351 0.012721701
0.0053036497 0.0018751184 0.02670843 -0.008111406 -0.010401513 -0.019379621 0.02436117 0.0008858156
-0.0075539406 0.00693964 0.0115255285 0.024784127 0.01373485 -0.0030378308 0.0061503984 0.0023944215
0.0012472741 -0.037106037 -0.0006678289 0.0012192164 0.016004283 0.006112726 0.01294421 -0.0066481624
0.011373601 0.016824095 5.8554455e-05 0.062569916 -0.007901138 0.0035411217 0.0048959833 0.0052628475
0.005841172 0.037582185 -0.035704132 -0.0017444113 0.015380633 0.0035948893 0.0373785 0.015646543
0.028883675 -0.0042774593 -0.00745632 0.011494636 -0.08596658 0.017984731 0.013935222 0.008407872
0.012473772 0.060500037 -0.044247158 0.0024054798 -0.033075113 0.014287654 0.02879232 0.0018582651
0.0009925494 -0.007328306 -0.0043274523 -0.07223838 -0.0065865945 0.025284756 -0.004083828 0.0011943897
-0.032282192 -0.017827667 -0.0008486395 0.040370047 -0.024992898 -0.03132626 0.12039766 0.015668986
-0.044428356 0.012707735 -0.005922187 -0.08128688 -0.013451067 0.027641803 0.039742406 0.026086269
-0.01936439 -0.031369314 0.009234943 0.0006462129 0.0045484668 0.053598918 -0.007404765 0.015730549
-0.014810283 -0.014585284 0.0018233956 -0.008545494 0.02277333 0.0010808799 -0.011000051 -0.010852934
-0.030490743 -0.007105053 -0.028641427 -0.004805134 0.013253125 0.043227453 -0.0066802874 0.008480221
-0.013402793 -0.021220258 -0.035006564 0.0037189983 -0.043585166 0.010485086 -0.017922042 -0.018597353
0.0051963897 -0.0070096357 0.011277762 0.0132026 -0.03946784 -0.038020343 0.07444697 0.016808987
-0.020551965 0.023736827 0.024897356 -0.075146 0.026608968 -0.005347303 0.03928981 0.00042136246
0.018717634 0.05293381 -0.009702095 0.021075165 -0.039724905 -0.09818733 -0.01600054 -0.024830619
-0.033587314 0.044631783 0.014181652 -0.09183804 -0.0047285967 -0.05710793 -0.0071597495 -0.021012807
0.014851757 0.0023042543 -0.0058696195 0.042238917 0.0009590064 0.120940804 -0.0042712903 0.0025777752
-0.009901728 -0.1206507 -0.072367586 0.0057365634 -0.07360931 0.010917489 0.01315803 -0.011418478
-0.00020767118 -0.18151137 -0.017495139 0.05193013 0.041091215 0.022510976 0.09244696 0.015148817
-0.04999749 -0.013899535 0.0038327933 0.07147068 0.0063151056 0.022188237 -0.01729932 0.007647099
-0.024592353 0.064126015 -0.027836265 -0.016379148 -0.02685366 0.049695164 -0.14883275 -0.0013112988
0.058943983 -0.045810003 -0.015696809 0.04810925 0.037437677 0.0013179544 0.04313622 0.014060439
0.032147277 0.34761232 0.04108286 0.03559269 -0.01753269 -0.035465587 -0.011665676 0.015014673
-0.03283486 -0.040038917 0.006027198 -0.27616665 0.017031422 -0.066018894 0.033555016 0.030273937
-0.018950658 -0.04507708 -0.02371005 -0.016649308 0.0010965336 0.037289817 -0.006057417 0.015110773
-0.0013192854 -0.012763249 -0.0062594665 -0.0982661 0.00994998 -0.0048775384 -0.0034670683 -0.017098395
-0.048503954 -0.10675118 0.15221058 -0.0030507566 -0.0217774 -0.05282718 -0.045785435 0.030370459
-0.0807394 0.015642168 0.015587482 0.17461596 0.1229039 -0.029368408 -0.017346233 -0.028521422

conv2.0.conv2b.0.conv2.weight f4 [16, 1, 3, 3]
00000000: 31bf 1b3d d0a2 1ebc 06c5 afbc 7248 4a3e
00000010: fef3 79bc 9185 07be 87de 9e3d 6e3e 02bd
00000020: 1d17 5fbd 41c2 b63c 169f bc3c 2d64 cb3c
00000030: 9d07 cc3b e03d 2dbb 38e3 103a d8e2 adbc
00000040: 9ca2 c5bc 4263 92bc ab80 4dbd ff30 a9bc
00000050: df88 bf3c 3826 97bd c983 0dbd 5ff8 333d
00000060: 5a46 60bd 3f76 38bc 76ce 073d 09e9 62bc
00000070: 8353 a5bc a8d8 92ba 5118 aa3b e268 00bd
00000080: 6d83 1bbc 1c5d 86bc 6e11 09bd 05c5 88bc
00000090: 95ee b1bc 2506 d6bc 4e1c f03c 661e ffbd
000000a0: 9975 fa3c 7ccd 293e 78b3 a7bc 8296 02bd
000000b0: ddad 1ebc 651c 2b3c 8cf9 7f3d aa21 43bc
000000c0: 4370 8d3d f9ee 303d 4ee1 1dbe ed76 073d
000000d0: def3 b23c 4119 bfbd 2955 57bc 2082 70bc
000000e0: 701b 6fbc 9838 82bc 7a05 8abc d1b0 60bc
000000f0: 8201 7ebc 8836 7bbc 2c19 85bc 2131 14bd
00000100: 7d59 6abc 903c 22bd 4a35 423c ccd1 863d
00000110: 0596 b7bb 63f1 d6ba d733 023d 57ff 773c
00000120: 30d3 babc ee83 fe3c 2a9f 20ba b364 97bd
00000130: a34c cd3d dbac 973d c353 d1bc b1cb 223d
00000140: b456 2a3d 4c1c 523d 3506 953e a13f 053d
00000150: a111 bb3c be2b 6d3c 07f4 143c e7d3 66bd
00000160: 4ef2 89be f6bd f3bd 4f3a 893d 9a59 923d
00000170: aa12 403d aa29 343d ca67 7cbe b117 213d
00000180: bf63 b1bb 4b8d e5bb cdf6 0ab9 5287 9dbd
00000190: 4404 0abd f362 ce3d 2988 86be 56f1 ca3d
000001a0: 272f ac3e 5c2d 0abe 03d2 8fbd 1ab5 cd3d
000001b0: dda4 953c b88b 5e3d f6a5 b4bb 936d 713d
000001c0: 2b6d 8e3d e435 90be 7ebe 033d 509c 9d3d
000001d0: d749 efbc a505 1bba eaa6 9abb 4598 39bc
000001e0: 06d7 b1bc 3993 ecbc cab8 8dbc 8a96 aabc
000001f0: 0433 17bd 870b 0dbd 513a 3fbd d5c4 5d3e
00000200: 63a4 06bd 34f5 503d 58ba 5c3e 5bea ab3d
00000210: dbdf 02bd 7e96 94be 2c2c b5bd a048 9eba
00000220: 0453 12bc 5d1b 9bbb 3b79 8ebc d2f3 a7bc
00000230: 6801 f7bc cdfa 23bc 0093 b6bc 805c c0bc
0.03802413 -0.009682372 -0.021456253 0.19754198 -0.015255926 -0.13234545 0.077572875 -0.03179782
-0.054465402 0.022309424 0.023025077 0.024828041 0.0062264935 -0.0026434585 0.00055270223 -0.021226332
-0.02412539 -0.017869595 -0.050171535 -0.020653246 0.023380695 -0.073803365 -0.03454951 0.043938037
-0.054754592 -0.011258661 0.03315588 -0.013849505 -0.020181423 -0.0011203485 0.005190887 -0.031350024
-0.009491784 -0.01640182 -0.033463888 -0.016695509 -0.02172021 -0.026125977 0.029310372 -0.1245697
0.030573653 0.16582292 -0.02047132 -0.031881817 -0.009685007 0.0104437815 0.062493846 -0.011909882
0.06906178 0.043196652 -0.15417978 0.0330724 0.0218448 -0.09330989 -0.013142862 -0.014679462
-0.014593944 -0.015896127 -0.016848315 -0.013714031 -0.015503289 -0.0153328255 -0.016247354 -0.036179665
-0.014303562 -0.03960854 0.011853525 0.06582984 -0.0056026005 -0.0016398843 0.03178772 0.015136561
-0.02280578 0.031068768 -0.0006127233 -0.07392254 0.10024383 0.074060164 -0.025552636 0.039745037
0.041586593 0.051296517 0.29106298 0.032531384 0.022835555 0.014475761 0.009091384 -0.05635443
-0.26942676 -0.119014665 0.067005746 0.071459964 0.0468928 0.043985046 -0.24648967 0.039329235
-0.005413502 -0.007005369 -0.00013252646 -0.07691826 -0.033695474 0.10077467 -0.26275757 0.099093124
0.33629724 -0.13493866 -0.070224784 0.10044308 0.01826709 0.054332465 -0.005512948 0.05894239
0.06954416 -0.28166115 0.03216409 0.0769583 -0.029210014 -0.0005913622 -0.0047196047 -0.011327808
-0.021708976 -0.028878795 -0.017300028 -0.020823736 -0.036913887 -0.03443482 -0.046686474 0.21657117
-0.032871615 0.051015094 0.2155546 0.08394309 -0.031951766 -0.29021066 -0.08846316 -0.0012076087
-0.008930925 -0.0047334866 -0.017391792 -0.020502005 -0.030152038 -0.010008526 -0.022286892 -0.023481607

conv2.0.conv2b.1.bn.bias f4 [16]
00000000: f4a7 0fbb 29f3 b9bc 32e1 423e 31bc 90bc
00000010: 6c23 353f 339b c83d 7477 17bc 3ba7 b93e
00000020: cee9 1cba 6224 8c3d a436 69bc 1c2e 9bbc
00000030: 1c78 d93d f299 043e 997b ab3c fc5b ebbc
-0.0021920176 -0.022698956 0.19031218 -0.017667862 0.70757174 0.09795227 -0.009244788 0.362604
-0.00059857673 0.06842877 -0.014234219 -0.018942885 0.10618612 0.1294935 0.02093296 -0.028730385

conv2.0.conv2b.1.bn.running_mean f4 [16]
00000000: 8d51 9b96 7311 cbbb 10eb 0b38 e0fb 03b9
00000010: e25a 1d37 f1a0 f6b9 eb78 d4ba 5a56 73bb
00000020: c185 6cb7 dc21 3d3a cfe4 12ba d079 3838
00000030: a9b5 da39 7dcd 8c38 ef8e 9b38 f899 80bb
-2.5093066e-25 -0.0061971485 3.33591e-05 -0.00012586964 9.3790895e-06 -0.00047040687 -0.0016210353 -0.0037130327
-1.4097838e-05 0.0007214823 -0.0005603553 4.3982465e-05 0.00041715548 6.7139954e-05 7.4175994e-05 -0.0039246045

conv2.0.conv2b.1.bn.running_var f4 [16]
00000000: 0400 0000 c4cf ef36 27b7 0437 615e fb32
00000010: 89b2 1f35 32fa 7737 5ef6 5536 7fcc 7d38
00000020: 29f1 0335 9758 2236 ed2f a536 ad38 5134
00000030: 713a ce36 c428 4437 2961 3c30 7275 1137
6e-45 7.146942e-06 7.910457e-06 2.9263164e-08 5.949192e-07 1.47806e-05 3.1882878e-06 6.0510352e-05
4.9152237e-07 2.4191447e-06 4.9229625e-06 1.948526e-07 6.146082e-06 1.1692002e-05 6.8532074e-10 8.670018e-06

conv2.0.conv2b.1.bn.weight f4 [16]
00000000: 4315 55ba 157a f93d 15b8 3d3e af4a 1c3d
00000010: 30c7 d53c f6e6 1e3e 554c d43d 4620 a53e
00000020: a294 cb3d 1070 a13d 8189 1e3e cca4 6b3d
00000030: 1feb 893d 4d3a df3d bdfa 04bc 132d 323e
-0.00081284734 0.121814884 0.18527253 0.03815716 0.026095957 0.15517792 0.10366122 0.32251185
0.09940459 0.07882702 0.15482141 0.05753021 0.06734299 0.10899792 -0.008116421 0.17400007

conv2.0.conv2b.1.conv1.weight f4 [16, 16, 1, 1]
00000000: 7ba3 aeb2 03c0 1eaa b8fa 9bb3 a426 2f38
00000010: a1b1 bc36 e043 cbad 2cc2 dbb3 c107 d7ab
00000020: c30f 6cb2 7394 9cb2 0e90 b231 0837 d0b2
00000030: 43cb e330 a3cd 7339 eb5c 9532 c880 1935
00000040: 0b83 273c d863 8b3c 1a61 09bc bc72 34bd
00000050: 544a 96bb 3dba 963b 2bcb 2b3d 84aa a7bc
00000060: bf16 57bc 0271 0abe 7e10 103d e775 e83c
00000070: 2ca0 b93b 8789 0dbd 1c02 2fbd df2f 27bd
00000080: f427 813d 8b72 db3c b95b acbc 1c92 f8bc
00000090: 7ff9 f83c d3e8 eabb 6c8d 3cbb 551e 9b3d
000000a0: d787 52bd e1d4 2d3d 04bc 0fbe 7da5 c03c
000000b0: 6bbe 3b3d 449a 403b 79d6 c1bc 2b45 4ebc
000000c0: 4449 473c da43 5e3c a3f9 e5ba 82c4 483b
000000d0: 915f cebb 456d ad3b 19eb bcbb 20f1 833c
000000e0: b27c 153b 9f47 77bc c8eb 16bd 3f2c 38bb
000000f0: d2d0 bdbb d68e afbb 86b5 71bc 34bc 343c
00000100: 689c 623c e6cb 80bc d47b 41bc 9d40 333b
00000110: ce3b 953d 962e 5bbd 1697 0fbc d1dd d039
00000120: b2b0 053d eebe 343a 6dc2 983c 2a61 83bd
00000130: c7eb 433c aab3 a13b 9cb6 b63b cb81 fabb
00000140: dbd5 8b3c bb2f 4a3b 4cd1 46bc 074b f8bc
00000150: f17e 28bd 6692 cbbc 3058 373c 1067 e9bb
00000160: 7f2d a53d cf82 143d 15ec 9fbb a187 13bd
00000170: 6feb 0abc 934b aabd 0683 b63c 871a bc3d
00000180: 3cbf 9abd e736 91bb 61b3 5fbc 2f99 bebc
00000190: c952 d43b 2d72 52bd c709 b03b 41d9 b6bc
000001a0: 07e3 9d3b 258b 5cbc 76a5 013a eef0 673d
000001b0: 3cb2 f03c f79e d9bc fec6 353c 9630 bebc
000001c0: b3e0 313c e2d6 5b3c 5560 5cbd 4cb1 aabd
000001d0: c84d 08bb 80f8 8fbb d80f 483d a1ea 993c
000001e0: 19e2 1fbd 4b18 54bc c389 403c ff27 16bc
000001f0: 4f3a 1cba 549a 4ebe b212 38bd 5a61 2e3e
00000200: e1c1 af3c f1a4 973a 58d4 afbc 570e 86bb
00000210: a907 3f3b a3fc 0dbd f152 953b 9f62 2c3b
00000220: 1a76 f23c af5a 613c db68 363d 55e7 903c
00000230: 593e 66bd ed8e dc3c 3f09 59bd a12e d3bc
00000240: aa00 16bb fb8f 40bc 371e 14bc 0324 3eba
00000250: f5be 8fbc fb43 dd3a 1b03 cc3b 1ff5 cbbb
00000260: 2dd8 b4bc 10f1 523d 77a6 c5bc 3470 25bc
00000270: c278 18bc 5b6f d13c 2560 a63d 9978 c93b
00000280: e708 25bc 7870 eabc 7aaf 1c3c 45fc 09bd
00000290: ada8 e03c a645 a3bb 3e0a cf3a 6fdd eabc
000002a0: 349d 42bd ab01 57bd 6b2b cfbc 597d 6839
000002b0: 5071 77bc 44c5 6e3b d8de 0b3e 18dc debc
000002c0: f25a ccb9 c1aa c63a 8e51 163b da94 38bc
000002d0: 4c08 b33b b23c e23b adfa ba3b 9fe4 dd3b
000002e0: dc74 ebba 193e 723d fe8d b83b f45e 3bbc
000002f0: 23e5 473c 0dad 8e3c 9aea 62bc 542f a63b
00000300: a2ad d73c 4d7f b73b 5e39 97bc ebf4 20b7
00000310: d18a d73b 5b89 713d 8a0c 64bb 8dfa 603c
00000320: 4b24 b4bb d079 49bc 1ced 84bc 654f 91bd
00000330: 09c0 94bd ab3f 4bbb c707 8e3c c500 373c
00000340: 199f 9d3d 204d 593a a6c3 223d ec0d 823c
00000350: 42f8 1dbd 15ad a13d b046 e9ba 115a ebba
00000360: 7e74 4cbd 7098 92bb 0f08 05bc 1be3 013c
00000370: d870 bdbd c80f 83bb b83e bcba 5dd1 3cbb
00000380: 8d4a a23a 65ac 77b9 45b0 4fba 548d d53b
00000390: a8be e73a 5583 3dbb c664 a5bb 2b4a b839
000003a0: 3b01 0e3b f51c a03a ca7b 39bc 4472 03bb
000003b0: 867a 4a3b a28e 52bc 44d0 f5bb 9b23 34bc
000003c0: 6428 8fbd ade9 24ba 8b68 a53c 6263 50bb
000003d0: f481 0bbd 6eab a4bc 1f5c 40bb c8f5 7fbc
000003e0: 82fa 543c e616 b63c 37af 9c38 7986 ed3d
000003f0: 8fea 9d3c fee3 6c3c d023 23bc c1f4 853c
-2.0330608e-08 -1.4099836e-13 -7.2633554e-08 4.175924e-05 5.6235153e-06 -2.310857e-11 -1.0233302e-07 -1.5278821e-12
-1.3740592e-08 -1.8228297e-08 5.196859e-09 -2.4239412e-08 1.6574194e-09 0.00023250892 1.7388137e-08 5.7184343e-07
0.010224114 0.017015383 -0.008384967 -0.04405473 -0.0045864973 0.004599838 0.041941803 -0.02046705
-0.013127982 -0.13519672 0.03517198 0.028376533 0.005664846 -0.034554984 -0.04272662 -0.040817138
0.063064486 0.026788017 -0.02103983 -0.030343108 0.030392407 -0.007168868 -0.0028770817 0.07574145
-0.05139908 0.042439345 -0.14036566 0.023516411 0.045835894 0.0029388824 -0.023661839 -0.012589733
0.012163464 0.013565982 -0.0017545711 0.0030634706 -0.0062980135 0.005292567 -0.0057653305 0.016106188
0.002280992 -0.015092759 -0.036845952 -0.0028102545 -0.0057927156 -0.0053576035 -0.014752751 0.011031199
0.0138312355 -0.015722226 -0.011809308 0.0027351745 0.072867975 -0.053511225 -0.008764049 0.00039838118
0.032639213 0.0006894906 0.018647397 -0.06415017 0.011958069 0.0049347477 0.005575968 -0.007644867
0.017069748 0.0030851203 -0.012134861 -0.030309213 -0.041136686 -0.024850082 0.011190459 -0.0071228817
0.08065318 0.03625756 -0.004880438 -0.036018018 -0.008478983 -0.08315196 0.022279274 0.09184747
-0.07556006 -0.0044315937 -0.013653607 -0.023266403 0.0064795953 -0.051378418 0.0053722593 -0.022320392
0.0048183235 -0.013460909 0.0004945615 0.056626253 0.029381864 -0.026565058 0.011094807 -0.023216527
0.010856795 0.013417931 -0.053802807 -0.08334598 -0.0020798314 -0.004393637 0.048843235 0.018788638
-0.039033983 -0.012945245 0.011751595 -0.009164809 -0.00059596164 -0.20176059 -0.044939704 0.17029324
0.021454753 0.0011569542 -0.021463558 -0.004091065 0.0029148853 -0.03466476 0.0045570065 0.00263039
0.02959733 0.013754531 0.04453359 0.017688433 -0.056211803 0.026923621 -0.052987333 -0.02577907
-0.002288858 -0.011753078 -0.009040407 -0.0007253291 -0.01754711 0.0016881222 0.006225956 -0.006224289
-0.022075737 0.051499426 -0.024127228 -0.010097552 -0.009306135 0.025565794 0.08123807 0.0061484096
-0.010072923 -0.028618082 0.009563321 -0.03368785 0.02742418 -0.004982668 0.0015795899 -0.02867004
-0.0475132 -0.052491825 -0.025289258 0.0002217194 -0.015102699 0.0036433497 0.13659227 -0.027204558
-0.00038977672 0.001515709 0.0022936794 -0.011265958 0.0054636355 0.006904208 0.0057061524 0.0067716385
-0.0017963904 0.059141252 0.005632161 -0.011436213 0.012200627 0.017416501 -0.013849879 0.00507156
0.026327912 0.005599892 -0.018459972 -9.593768e-06 0.0065778275 0.058968883 -0.0034797513 0.013731611
-0.0054974905 -0.012297109 -0.016226344 -0.070952214 -0.0726319 -0.003101329 0.017337693 0.011169617
0.07696361 0.00082893856 0.039737366 0.01587578 -0.038566835 0.07894341 -0.0017797556 -0.0017955919
-0.049915783 -0.0044737384 -0.008119597 0.007927681 -0.09250039 -0.003999684 -0.0014361953 -0.0028811314
0.0012381837 -0.00023619978 -0.00079226895 0.0065170918 0.0017680721 -0.0028917391 -0.0050474135 0.00035150474
0.0021668214 0.0012215661 -0.0113210175 -0.0020057121 0.0030895784 -0.012851389 -0.007501634 -0.010994817
-0.06990126 -0.0006290924 0.020191452 -0.0031797518 -0.03405948 -0.020101275 -0.0029351783 -0.015622564
0.012999179 0.022227716 7.471296e-05 0.11597914 0.019276885 0.014458654 -0.009957269 0.01635206
